Example/DQNCartPole.pt (torch_old, 23496 bytes, 12 tensors)

linear1.weight f4 [256, 4]
000000 8d 64 94 bc 13 31 bc 3c c6 4d 68 be e5 a2 9a 3d
       -0.018114353 0.02297262 -0.22685918 0.07550601
000010 61 44 0a be 5d 4a 49 3e 66 33 9a 3d 9d c3 80 3e
       -0.13502647 0.19657274 0.07529335 0.2514924
000020 43 76 d4 3e 6c fb f8 bd 71 06 9e be 85 53 f7 bd
       0.41496477 -0.1215733 -0.3086429 -0.12076477
000030 02 7e 4e 3e 08 eb 03 be 12 db a1 be de 8a dc 3e
       0.20165256 -0.12882626 -0.3161245 0.43074697
000040 7f a6 81 be 70 69 2b 3c db 7b 69 be 2f 63 a1 bc
       -0.2532234 0.01046215 -0.22801153 -0.019700615
000050 58 0a 9b 3d 70 d9 ca be 0f 24 37 bf e6 e1 cb be
       0.07570332 -0.39619017 -0.71539396 -0.39820784
000060 e6 a8 e9 be 79 50 ea be 00 6b a4 be 6c 63 bf be
       -0.45636672 -0.4576452 -0.32112885 -0.3738054
000070 76 85 d5 be 99 27 aa 3e 52 57 e5 3e 86 60 80 3e
       -0.41703385 0.33233336 0.44793183 0.25073642
000080 68 11 b2 3e 26 71 7c 3e 8f 3d e3 3e de 16 51 be
       0.34778905 0.24652538 0.44382903 -0.2041888
000090 0a 49 c0 3d 7a ba 04 3e 90 14 f5 3f d6 28 ae 3e
       0.09388931 0.1296176 1.91469 0.3401553
0000a0 ec 5f 0e 3f 99 40 82 3e 96 9b b7 be e6 3f 85 3d
       0.55615115 0.2543991 -0.3586089 0.06506328
0000b0 a7 a2 d2 3d 41 ce 00 3e fe 29 b6 3f a7 a7 da 3e
       0.1028493 0.1257868 1.4231565 0.42706034
0000c0 90 b6 1c bd c6 a8 3d 3e 21 32 1b bf 45 f2 b0 3e
       -0.038260043 0.18521413 -0.60623366 0.34559837
0000d0 46 27 cb bd c6 1d 67 3e 8d 20 55 be 64 e1 6e 3e
       -0.099196 0.22569951 -0.20813198 0.23328167
0000e0 69 66 9e 3d e8 7b 12 3e a7 56 42 3e 99 16 8f 3e
       0.07734377 0.14305079 0.18978368 0.27946928
0000f0 30 69 d2 bd f7 e2 b7 be 24 74 04 3f 97 c4 e3 3d
       -0.10273969 -0.35915348 0.51739717 0.11121481
000100 b4 9e 35 be 9e 87 ae 3e 28 27 3c 3f d2 a0 0b be
       -0.17736322 0.34087843 0.7349725 -0.13635567
000110 cf 2c 0e bf 63 a7 bb 3e e0 68 8a 3f 18 c1 2b be
       -0.5553712 0.36651143 1.0813255 -0.16772878
000120 6d c7 56 be 0a 43 7e 3e b3 e6 7c 3d 37 6c 48 3d
       -0.20974512 0.24830261 0.06174345 0.048931327
000130 67 01 f0 be 39 44 7e 3c 7e b3 81 be f7 e2 d0 bd
       -0.4687607 0.015519195 -0.25332254 -0.1019954
000140 87 3f 3e bf da f1 3c be d0 21 87 3f 7d 90 d6 3d
       -0.74315685 -0.18451634 1.0557194 0.10476778
000150 0c 32 08 3f 74 a2 47 be ca b2 58 bf ae f7 a4 3e
       0.53201365 -0.19495565 -0.8464781 0.32220215
000160 30 2b 12 be 56 ef 84 bd 54 c8 2c be cd bf b9 3e
       -0.14274287 -0.06490962 -0.16873294 0.36279145
000170 15 2e 08 3f d7 a5 74 be 55 25 6f bf be 95 a2 3d
       0.53195316 -0.23891388 -0.9341634 0.07938717
000180 3a f0 7a be 38 77 1c 3e 12 7e 80 3e 6c cf 03 be
       -0.24505702 0.15279853 0.25096184 -0.12872094
000190 97 21 ff be 25 36 00 3f 00 b4 fc 3f 83 83 c9 3e
       -0.49830315 0.5008262 1.9742432 0.39358148
0001a0 2c 0a 98 be 2c d5 85 3e 2c 98 47 3e c0 69 5a 3e
       -0.2969526 0.261392 0.19491643 0.21329403
0001b0 76 7a cd bd 78 d4 12 3e 74 7c 4e 3e 95 bf 69 3d
       -0.10033123 0.14338863 0.20164663 0.057067472
0001c0 10 66 c0 3e c9 8b bd be 3b 6e 82 3e 13 f4 df bd
       0.37577868 -0.3702071 0.25474724 -0.10935225
0001d0 ef 6c 25 3f 29 97 b0 bd c2 bd b7 3e cf a7 ad 3e
       0.64619344 -0.086225815 0.3588696 0.3391709
0001e0 bc 61 df 3e bd af b9 bc 79 e2 e0 bf 1b 7d 92 be
       0.43629253 -0.022666806 -1.7569114 -0.28611073
0001f0 ca 25 94 be 6b 28 43 be 69 50 5f 3f 6c 80 00 3e
       -0.2893508 -0.19058387 0.8723207 0.12548989
000200 57 95 53 be a8 ee 8d 3d 12 e0 20 be 47 c5 0b 3c
       -0.20662437 0.06930286 -0.15710476 0.008530921
000210 fc 66 3a bc 74 82 9f bd c4 88 7f be 20 b1 41 be
       -0.011377092 -0.07788554 -0.24954516 -0.18915224
000220 06 b0 08 be dd 57 c0 3e 1b 72 0e bf af 5b ef be
       -0.13348398 0.37567034 -0.5564286 -0.46749637
000230 66 f7 68 be 36 65 10 3f 97 00 eb 3d 27 cc ea be
       -0.22750625 0.56404436 0.11474722 -0.4585888
000240 10 8c 86 bd 7d 2c 60 3d 46 b8 75 3f 4e af 0f be
       -0.065696836 0.054729927 0.95984304 -0.14031717
000250 7e d8 0d 3f 73 6f a9 bd b0 50 46 bf 48 2b af bd
       0.55408466 -0.082732104 -0.7746687 -0.08553177
000260 43 10 b6 be c8 23 0d be 76 1d 05 3d ec c7 58 be
       -0.35559282 -0.1378318 0.0324988 -0.21170014
000270 3f 4b 4c 3e b7 21 92 3e e6 bc 1e 3f 5e 3b 14 3e
       0.19950579 0.28541347 0.62006986 0.14475772
000280 23 96 99 be cb 42 7f be 26 ed c3 3c 68 9e e9 bd
       -0.29997358 -0.24927823 0.023916792 -0.11407167
000290 da 7a 01 bf b6 61 8f 3e ab 7c 83 be 36 16 a4 3c
       -0.5057808 0.28004235 -0.25681052 0.020030122
0002a0 d8 d1 20 be 90 85 90 3e c6 bc 40 be c3 80 7c 3e
       -0.15705049 0.282269 -0.18822011 0.24658494
0002b0 07 8e 01 bd 3b 4e a8 be fc d6 7e 3f f6 09 cd be
       -0.03162959 -0.32872185 0.9954679 -0.40046662
0002c0 36 52 17 3e 38 3a b3 be 7c 6e 08 3f af aa 08 3e
       0.14777455 -0.35005355 0.53293586 0.1334636
0002d0 e6 9b 12 3e 72 cf 1f be 82 bc 2b bd 45 38 c0 3e
       0.14317283 -0.15606478 -0.041927822 0.3754293
0002e0 ed c8 17 3f 5e 0e d5 bd 7f e3 f2 3e 9f 75 c3 3e
       0.59290963 -0.10403131 0.4743919 0.38175675
0002f0 50 85 e2 3e 90 41 b1 3e cc 3f c1 3d 1e bc 5a 3e
       0.44242334 0.34620333 0.094359964 0.21360824
000300 b3 0a bc be 29 bc d5 be 89 c1 59 3f 39 bc 85 be
       -0.36726913 -0.41745117 0.85060936 -0.26120165
000310 e6 e7 15 be 80 b0 ad 3e b6 48 0a 3d 0b 4a 6a be
       -0.14639243 0.3392372 0.03376075 -0.22879808
000320 fa 57 7f be 82 e2 d6 3e b8 19 c8 3d 95 30 7d 3e
       -0.24935904 0.41969687 0.097705305 0.24725564
000330 d7 1c 26 bd cf b8 9c be 97 0d 82 bf 14 e8 9c be
       -0.040554848 -0.30609748 -1.0160397 -0.30645812
000340 82 68 ca be c8 20 90 3e 9b 46 62 3f 3a 42 46 be
       -0.39532858 0.2815001 0.88388985 -0.19361201
000350 a4 f3 1b be 23 cd cf bc ee e3 98 be 18 17 00 3e
       -0.1522966 -0.025366371 -0.29861397 0.1250881
000360 93 a5 cd 3e 6d 31 26 3d 28 d8 1b bf 0b 46 d0 3c
       0.40165386 0.04057448 -0.60876703 0.025424024
000370 57 ab 16 3f bd 84 08 3b ee 47 bb bf 04 6a fd bd
       0.58855194 0.0020831071 -1.4631326 -0.123737365
000380 fb 38 2f 3e 7d ae 68 bd 48 41 d1 3d 5c cf 06 3e
       0.1711158 -0.05680703 0.102175295 0.13165039
000390 19 fe 56 3e be f2 a3 3e 8e b2 2c 3c 9c 49 ac be
       0.20995368 0.32021135 0.010540618 -0.3364991
0003a0 2e 18 9c bc ec c9 9a 3e 2d 7f 48 3e ea 86 79 3e
       -0.019054499 0.3023218 0.19579764 0.24367872
0003b0 4a 4b 6f 3c 4b 48 20 3e e7 0b 84 3c 58 f2 fa 3d
       0.014605353 0.15652578 0.016118957 0.12253255
0003c0 60 51 75 be 74 01 97 3e eb 6f 10 3b 3d cb 1e 3e
       -0.23956823 0.29493296 0.0022039365 0.15507217
0003d0 ae 99 ae be 91 56 ce 3d 62 51 2f 3f f4 d0 ac be
       -0.34101623 0.10075105 0.68483555 -0.3375317
0003e0 6f b4 a6 be f1 46 18 3e 71 ab 1e be 21 ab 68 bd
       -0.32559535 0.14870812 -0.15495087 -0.056803826
0003f0 82 df 94 3e f4 6b 83 3e 1e 30 c6 be 98 6f 63 3e
       0.29076773 0.256683 -0.38708586 0.22210538

linear1.bias f4 [256]
000000 97 2f 57 be 2b 34 00 3f b3 fb 25 3e e3 05 d5 3e
       -0.21014248 0.500796 0.16209297 0.41606054
000010 fe 05 08 bf 6f b6 22 3e f3 c3 c0 3e 6e 1e 05 3f
       -0.53134143 0.15889905 0.37649497 0.51999557
000020 93 49 d8 bc 57 6e 06 bf 52 d7 f4 3e da 68 ea be
       -0.02640227 -0.52512115 0.47820526 -0.4578312
000030 26 23 22 3f 5b f1 bb 3e 64 44 31 3f c2 b9 2e bf
       0.6333488 0.36707577 0.6924498 -0.68252194
000040 65 aa 34 3c 8f ea e1 bd e7 f5 93 bc de e8 b2 3e
       0.011026953 -0.110310666 -0.018061591 0.3494329
000050 c3 f4 da be ad 46 97 3e dc 0d 52 be 05 b9 36 3d
       -0.42764863 0.2954611 -0.205131 0.044610042
000060 67 a4 91 3e b7 10 d2 be 9e 7f 97 be 94 fc 94 3e
       0.28445742 -0.41028377 -0.29589552 0.29098952
000070 01 a6 5b be 8a 39 0d be 97 42 0e bf 33 83 49 bf
       -0.21450044 -0.1379148 -0.5557036 -0.7871582
000080 a2 71 d7 3e de 71 07 3f 3e b6 4b be 1c 89 41 be
       0.42078882 0.5290812 -0.19893739 -0.1889996
000090 94 dd 36 be c7 ff 9b 3e ac d3 99 3e b3 a2 ea bc
       -0.17857963 0.3046858 0.30044305 -0.028642034
0000a0 12 8d 19 3f a1 81 f6 3e 01 99 90 3e ad 92 3d 3e
       0.5998088 0.48145774 0.28241733 0.18512984
0000b0 24 0e 3a bf 63 6a eb 3e 9b 32 8b be 82 40 2e 3d
       -0.72677827 0.45979604 -0.27187046 0.04254199
0000c0 4d e1 3b be da 7e 7b 3e cc 3c cf 3e 55 73 3b bf
       -0.18347664 0.24560109 0.40476072 -0.7322286
0000d0 0c b4 c3 3e 21 91 18 3e 22 a7 79 3e e8 12 95 be
       0.38223302 0.14899112 0.24380162 -0.29115987
0000e0 95 a3 13 3f c6 99 98 3e e1 0e 1f 3f 4a c8 be 3e
       0.5767148 0.2980482 0.6213208 0.37262183
0000f0 ac ba 35 3e 26 84 ee 3e f0 66 d3 3e e4 af ee be
       0.17746991 0.46585196 0.41289473 -0.4661857
000100 8e 8b c6 3e 6e 1a 33 be b5 ec 4f be 01 dc ce 3e
       0.38778347 -0.17490551 -0.2030514 0.40402225
000110 ed 65 46 bf 2e b7 f1 bd 7c 7d 63 be ab 44 15 3f
       -0.77499276 -0.11802517 -0.22215837 0.58307904
000120 40 d1 01 bf d3 fc 4d 3e 2a fd 21 be e0 23 8c 3e
       -0.50709915 0.20115976 -0.1581923 0.2737112
000130 c9 05 80 3d d7 48 98 be 4b c8 5e be 5c 2a bc 3e
       0.062511034 -0.29743072 -0.21756093 0.36751068
000140 5c 3e 2e bf f1 00 fc 3e d3 39 c7 3e 6b 4d 89 3d
       -0.680639 0.49219468 0.38911304 0.067042194
000150 11 a7 1f 3f 87 26 00 3f 1c ef 8d 3e 2c f6 29 3f
       0.623643 0.5005879 0.27721488 0.66391253
000160 e4 11 91 3e bf 42 15 3e 85 95 36 3d 26 a5 71 3e
       0.28333962 0.14576243 0.044576187 0.23598155
000170 b1 98 d7 3e e9 1e 72 3e ff 54 a2 bc a2 17 e0 3e
       0.42108682 0.23644604 -0.01981592 0.4376803
000180 bf 8b 29 3f 5f 73 1c 3f 7e aa b2 3e 9d dc 96 bd
       0.6622886 0.6111354 0.348957 -0.073662974
000190 97 60 22 bf 7c c3 fe be 41 51 fd 3e 9d a8 88 3e
       -0.63428634 -0.49758518 0.49476054 0.26691142
0001a0 53 2c e5 3e d9 18 fc 3e e2 72 3f bf ba e3 c0 3e
       0.4476038 0.49237707 -0.7478467 0.37673742
0001b0 f5 b4 84 3e 11 bc 52 bf f4 36 68 3e a2 3b 88 be
       0.2591931 -0.82318217 0.22677213 -0.26607996
0001c0 4e e4 20 3d 50 e4 03 3f 2d 9d 7f 3e 02 73 cc bd
       0.03928023 0.5152025 0.24962302 -0.099828735
0001d0 97 de 06 3f ac 6c a7 3e c8 be b6 be b5 5a 42 be
       0.52683395 0.32700098 -0.3569243 -0.18979914
0001e0 10 7b 14 3f 50 d2 7f 3e 72 87 44 bf f9 15 9b bc
       0.5800028 0.24982572 -0.76769173 -0.018931376
0001f0 82 04 2f be ae f3 94 be 9b 71 0c 3f 25 8d a6 be
       -0.17091563 -0.29092163 0.5486085 -0.3252956
000200 d0 5e c7 bd e1 41 4f 3e 93 ae 11 bf a5 35 d8 3e
       -0.09734881 0.20239975 -0.56907004 0.42228428
000210 72 d1 24 bf 20 68 07 be 50 b0 ec 3e 41 c1 9a 3d
       -0.6438209 -0.13223314 0.46228266 0.075563915
000220 92 25 07 3e e4 80 19 be 69 6c 6b bf b0 e6 96 be
       0.13197926 -0.14990574 -0.91962296 -0.29472876
000230 c4 c2 d1 3d f4 aa db be 02 79 50 3e 17 fa 19 bf
       0.10242227 -0.42903864 0.20358661 -0.6014723
000240 5f 4d 89 3e d4 5f c4 3d 3d f1 e9 be b9 61 d6 be
       0.26816842 0.0958859 -0.45691863 -0.4187143
000250 b8 0f b8 3e 3e 06 e9 3e ef 02 c0 be 78 24 9a 3e
       0.35949492 0.45512575 -0.37502238 0.30105948
000260 7b 94 92 bd 5b b7 2f bf d8 d6 10 3f d6 ab 07 bf
       -0.07157227 -0.68639153 0.56577826 -0.52996576
000270 8a ec 1e 3f 91 19 20 bf 89 49 e1 be 20 dc 30 be
       0.6207968 -0.6253901 -0.44001415 -0.17271471
000280 c7 de e7 3e 88 03 54 3e 30 d0 c0 3c 4f ef 8b bc
       0.45287153 0.20704472 0.023536772 -0.017081885
000290 e8 e4 7a be b0 ef ac 3e 6e e9 51 3e 13 8a 54 bf
       -0.24501383 0.33776617 0.20499203 -0.83023185
0002a0 cf 2d cd 3e a4 ae 1f bc 00 9b 3a be ff e4 2e 3e
       0.40074012 -0.009746227 -0.1822319 0.17079543
0002b0 d4 61 44 bf d7 51 c2 3e b0 db 8f 3e 14 b2 5e bf
       -0.76711774 0.37953064 0.28097296 -0.86990476
0002c0 96 85 dd 3e 4c c7 d1 3e 3b 27 ce 3e 19 84 53 bd
       0.4326598 0.40972364 0.40264305 -0.05163965
0002d0 1b 57 62 3e f0 b0 e1 3e e1 e9 98 3e 84 6a a3 3e
       0.2210354 0.44080305 0.29865935 0.31917202
0002e0 d8 ae 85 3d 56 66 d7 be 6f 88 ca 3e 64 69 34 bd
       0.065274894 -0.42070264 0.39557216 -0.04404582
0002f0 1c ee f6 bd f7 8c 18 3f b4 32 c8 be ee 87 81 3e
       -0.120571345 0.59590095 -0.39101183 0.2529902
000300 b7 0a 12 bf 76 91 48 3e 50 bc 87 bd 79 4a b1 be
       -0.570476 0.19586739 -0.06627715 -0.3462713
000310 d4 1c ff be 9d 40 85 3e 33 da d5 3d e6 c1 21 3f
       -0.49826682 0.2602586 0.10442009 0.6318649
000320 b7 b4 de 3e ac f0 3e 3d 7e 32 fe be 28 6a f2 be
       0.4349725 0.04661624 -0.49647897 -0.47346616
000330 a2 73 11 3d 15 af 9c 3e c4 af 1d 3f 96 5e 20 bf
       0.035510667 0.30602327 0.6159632 -0.62644327
000340 88 31 15 bf 7f 24 6d 3e 00 05 32 be 38 ad f4 be
       -0.58278704 0.23158453 -0.1738472 -0.47788405
000350 6b ec ed 3e ff 3f 9a 3e fb a0 dd 3e b8 8c d2 3e
       0.46469435 0.3012695 0.4328688 0.41122985
000360 d8 75 2e 3d 97 63 22 3e cb c1 fc 3e b3 e3 b9 be
       0.042592853 0.15858303 0.49366602 -0.36306533
000370 cd 32 0b 3f c5 f9 72 bf 05 8f 5f 3d 72 d1 84 3e
       0.5437439 -0.9491237 0.054579753 0.25941044
000380 1f 8d cd 3e 38 98 ec 3e 48 72 97 be 0d 56 2a 3f
       0.4014673 0.46209884 -0.29579377 0.66537553
000390 f8 44 c1 3c aa e6 bc 3e 8f 12 0b 3e 5e 30 de bd
       0.023592457 0.36894733 0.13581298 -0.10849069
0003a0 f1 f6 04 bf 0e dc e2 3e e8 99 17 bc a2 ee 20 3e
       -0.519393 0.44308513 -0.009253003 0.15716031
0003b0 15 85 52 be e7 6d fc be 64 43 22 bf a3 fa 99 3e
       -0.2055858 -0.493026 -0.6338408 0.30074033
0003c0 ea 63 04 3f 47 c8 a0 3c 41 4c 2a bf d6 a5 97 bc
       0.51714957 0.01962675 -0.66522604 -0.018511694
0003d0 9d e8 0c be b3 14 28 3f 33 ce 81 be 28 75 6a bf
       -0.1376061 0.65656585 -0.2535263 -0.91585016
0003e0 8a 90 e3 3d ad c6 1c 3f 18 57 ec 3e 3e 36 3d be
       0.11111553 0.61240655 0.46160197 -0.18477723
0003f0 75 68 8b 3e 9c 3e 15 bf 47 be e1 3d 68 7c 39 bf
       0.27228132 -0.5829866 0.11022621 -0.72455454

linear2.weight f4 [2, 256]
000000 8f 7e fa 3b 6f 71 47 3d 9f 3c 18 3e e6 c4 08 3e
       0.0076444815 0.048692163 0.14866875 0.13356361
000010 a9 96 0a bf a5 34 74 bd b7 33 27 3e c6 d2 59 3d
       -0.5413614 -0.05962052 0.16328321 0.053179525
000020 69 71 9c 3d e7 45 0a bf 43 c3 41 3e 14 68 f7 be
       0.07638819 -0.5401291 0.18922143 -0.48321593
000030 89 35 fa 3d d3 e0 06 3e 19 ab 0e 3e 2b 07 5d be
       0.12217242 0.13171701 0.13932456 -0.21584766
000040 d5 1e d1 bd 0c e4 3b bd e2 7c 7c bb cf c5 b2 3d
       -0.10210959 -0.04587178 -0.0038526584 0.08729135
000050 71 23 93 be 1f 76 76 bc d1 27 b9 bc 6e 95 2f bd
       -0.28737977 -0.015042811 -0.022601994 -0.042867117
000060 0f c3 a7 3d 02 2a a6 bf 02 b2 16 3d 38 53 14 3d
       0.08191501 -1.298157 0.036790855 0.036212176
000070 56 56 8c bc 0d 5e 09 be de 39 d3 be 56 66 66 bf
       -0.017131012 -0.13414784 -0.41255087 -0.899999
000080 28 a5 18 3e 2f b9 16 3e 2f 2d bc bd 5b 2d ad bc
       0.14906752 0.1471908 -0.091883056 -0.021139791
000090 bc 64 5f bb c5 89 1d 3e 7e 9d 9f 3d f0 3f ed 3c
       -0.0034087142 0.15384586 0.07793711 0.028961152
0000a0 01 a8 bf 3d 6a 0f 7e 3d 70 d6 93 3d 05 c2 13 3e
       0.09358216 0.06202642 0.07218635 0.14429481
0000b0 f9 d6 67 be 49 fa a6 3d bb a5 da bd fa 63 83 bc
       -0.226406 0.08153207 -0.10676142 -0.016038883
0000c0 1a 1a c2 3c 51 03 37 3d d0 aa d5 3d 9c ff 75 bf
       0.023694087 0.044680897 0.104329705 -0.96093154
0000d0 d5 84 c3 3d 02 bd c4 3d f5 4a 51 3e 12 f6 85 be
       0.0954682 0.09606363 0.2043875 -0.261643
0000e0 86 18 23 3e 96 0b f2 3c 9f 2d 0a 3e 20 79 6d 3d
       0.15927324 0.02954654 0.13493966 0.057976842
0000f0 c4 0f 1c 3d 8c 3d 93 3d f8 ea 4a 3d b8 4c 14 3c
       0.038100973 0.071894735 0.04954049 0.009051494
000100 29 91 ac 3d 13 26 02 3d 48 cf 29 bd 54 e7 8e 3d
       0.084261246 0.03177459 -0.041457444 0.06977716
000110 2f 64 96 be 17 08 e2 bd b8 37 b6 bc 2d 50 e4 3d
       -0.2937331 -0.11036699 -0.022243366 0.11148105
000120 45 39 bc bd c7 60 1c 3e d0 f0 41 be f1 e1 36 3e
       -0.09190611 0.15271293 -0.18939519 0.17859627
000130 7e d2 fe bd 67 f5 3e be a8 d3 c9 bd 8e 5d c4 3d
       -0.12442492 -0.18648301 -0.09854823 0.09588157
000140 2b f4 94 bf e3 b1 e7 3d e7 a6 d8 3d d2 0f 8d bb
       -1.1637014 0.11313226 0.10578709 -0.0043048644
000150 65 1f 1f 3e 0f a9 dc 3d 02 cf 22 3d 1c b8 08 3e
       0.1553932 0.10774433 0.0397482 0.13351482
000160 5d 85 5b 3d 1d bd 23 3e 57 6d a4 bb 6c ff 8e 3d
       0.053593982 0.1599011 -0.005017917 0.069823116
000170 0c 3c b8 3d 74 e6 38 3d c3 bf d1 bc 19 cc ad 3d
       0.08995828 0.045141652 -0.025604134 0.08486194
000180 c0 40 cf 3d 1f e5 28 3e 39 9b cf 3d ff d9 aa bd
       0.10119772 0.16493653 0.10137028 -0.08342361
000190 5e 36 32 bf 32 a5 03 3d ab da a5 3d 37 07 a2 3d
       -0.6961421 0.032139964 0.08098348 0.07911532
0001a0 72 c2 24 3e a1 c0 a3 3d 0f ce bb be b8 bb cb 3d
       0.160898 0.079957254 -0.36680648 0.09947914
0001b0 a9 0f 17 3e b8 b3 48 bf 32 24 a3 3d b7 ef c3 3c
       0.14752068 -0.7839923 0.07965888 0.023918016
0001c0 a5 0a cf 3c a8 99 ed 3d dd a3 1d 3d fb ff 8a bb
       0.02527363 0.11601573 0.03848635 -0.004241941
0001d0 32 dd de 3d c7 8d 17 3e 60 47 22 3c d6 a3 86 bc
       0.108820334 0.14800178 0.009904712 -0.016435545
0001e0 e1 bc d0 3d 86 9b 8d 3e 1e c3 81 bf 5f 67 85 bd
       0.10192276 0.27657717 -1.013767 -0.06513857
0001f0 ec b9 be 3d be 1b 64 3d d1 8d 8e 3d ac ec e7 bc
       0.093128055 0.05569052 0.06960643 -0.028311096
000200 5b d0 71 bd 2f 69 37 3e 4a c1 22 bf 93 07 71 3d
       -0.059036594 0.17911218 -0.63576186 0.058845114
000210 32 fe e4 bd 79 c8 6c 3d 30 0a 6f 3d f5 1a fa 3c
       -0.111812964 0.057808373 0.058359325 0.030530432
000220 c2 af e4 3d 3e 09 d5 bc 89 71 7e bf 5d 76 8f 3c
       0.11166336 -0.026005384 -0.9939199 0.017512495
000230 46 7d b0 3d 68 f9 7d 3d 24 dd 08 3d 08 1f 26 be
       0.08617644 0.06200543 0.03341402 -0.16222775
000240 85 48 f7 3d c4 48 4d 3d d7 ca fb 3b cd 7e b1 3d
       0.12074379 0.050118223 0.0076840925 0.086667635
000250 f5 87 bd 3d 1b 76 da 3d 6c 1c 03 bf 30 60 6f 3d
       0.09254447 0.10667058 -0.51215243 0.05844134
000260 1c 5f 39 3c 8b 32 cc be 19 a0 9b 3d 7e 53 7e bf
       0.01131418 -0.3988231 0.075988956 -0.9934615
000270 f1 73 3a 3e 47 5d 49 bf 2d 95 c7 be 3e ea f7 bd
       0.1820829 -0.78657955 -0.38981 -0.12105225
000280 ff d3 07 3e 71 a4 c6 3b dd 14 e8 3a 90 42 9a bc
       0.13264464 0.0060620834 0.0017706413 -0.018830568
000290 28 aa 4c 3d 27 1e 1a 3d e4 7b 14 bf d9 a8 39 bf
       0.04996696 0.03762641 -0.5800154 -0.72523266
0002a0 cf 2b 02 3e 07 07 2f 3d bc d3 d1 3c ae 97 8f 3d
       0.12712024 0.04273131 0.025613658 0.070113525
0002b0 39 e4 64 bf 52 68 a3 3d 96 05 e8 3d 59 1e 95 bf
       -0.8941074 0.07978882 0.113291904 -1.1649886
0002c0 1d 2a bd 3d aa 61 17 3e 3b 24 30 3e f4 53 f2 3b
       0.09236548 0.1478335 0.17201321 0.007395262
0002d0 77 c8 6c 3d 20 bd f3 3d 5a 29 ce 3d 2e 39 37 3d
       0.057808366 0.11901307 0.10066481 0.044732265
0002e0 28 67 09 3e 92 7f f2 be fe 36 9d 3d ac a3 81 3b
       0.13418257 -0.47362953 0.076765046 0.003956279
0002f0 8a c7 c7 3d 9a d1 c0 3d e1 e9 e4 bd aa b3 8a 3d
       0.09754856 0.09414978 -0.11177421 0.067725495
000300 92 a7 0d be 04 40 9b 3d 80 47 dd 3c f1 a6 d7 bd
       -0.13833454 0.075805694 0.027011633 -0.105298884
000310 3f dd 0f bf 59 ef 09 3e 36 4c 8f 3d 5e 93 c9 3d
       -0.5619697 0.1347021 0.06996958 0.09842561
000320 c5 08 e4 3d 44 4f df bc 0c 5b f9 be 28 9e 99 be
       0.11134485 -0.027259476 -0.48702276 -0.30003476
000330 67 99 f5 3c 29 89 e1 3d 2e 18 9b 3d 8d 61 ed bd
       0.029980375 0.11012489 0.07572971 -0.11590872
000340 3f a8 16 be 45 33 65 3d 48 1f 56 be 30 f0 5b be
       -0.14712618 0.055957098 -0.2091037 -0.21478343
000350 9b 7b 9c 3d 05 e2 99 3d c4 11 cb 3d 9f 7e 36 3e
       0.07640763 0.07513813 0.09915498 0.1782174
000360 ea 13 48 3d 0a 49 0b 3c be 7b 36 3e 22 45 c2 3d
       0.048847117 0.008501301 0.17820641 0.09485842
000370 a0 99 0d 3e 2f ee 7a bf ca 50 ff 3c 91 90 25 3d
       0.13828135 -0.9801969 0.031166453 0.040421072
000380 b9 c3 46 3e 76 95 dd 3d e8 0b 06 3d ac 6c ea 3d
       0.194106 0.10819523 0.0327262 0.11446509
000390 c0 65 10 bd 76 f9 5a 3d 33 06 db 3d 7e ba d2 bd
       -0.035253286 0.05346056 0.10694542 -0.10289477
0003a0 d5 ee b5 be 6b de 48 3d 93 7e 4c 3c ab 85 cb 3c
       -0.35533777 0.04904024 0.0124813495 0.024844011
0003b0 b2 cc 02 bf 48 67 c9 bd 27 80 8c bf 47 03 15 3e
       -0.5109359 -0.098341525 -1.0976609 0.14552031
0003c0 a2 bb be 3d 5c 55 26 be ca 46 e8 be a0 a6 8c 3d
       0.09313132 -0.162435 -0.45366508 0.06867719
0003d0 dc f3 24 bd 28 5b 4c 3d c8 c4 65 bc 81 9d 6a bf
       -0.040271625 0.04989162 -0.014023967 -0.9164658
0003e0 c4 87 81 3d d8 fb 1f 3e 4b ff b8 3d 11 6e 56 be
       0.06324723 0.15623415 0.09033068 -0.20940425
0003f0 4d c0 89 3b d2 cf 85 be 58 f8 5b 3d e7 f0 5e bf
       0.0042038322 -0.26135117 0.053703636 -0.8708634

linear2.bias f4 [2]
000000 a0 fb 1f 3e 2d a1 eb 3d
       0.15623331 0.11505351

exp_avg f4 [256, 4]
000000 04 00 00 80 04 00 00 80 04 00 00 00 04 00 00 00
       -6e-45 -6e-45 6e-45 6e-45
000010 cd dc bb 39 38 0a b5 39 9a 7c 04 38 58 00 97 b7
       0.0003583193 0.00034530624 3.1587297e-05 -1.8000763e-05
000020 d2 94 bc b7 ee 7f c6 b8 87 d9 6c 37 a9 51 93 38
       -2.2480646e-05 -9.4652045e-05 1.4117343e-05 7.0247166e-05
000030 2c 87 1a 39 e5 0d 8c 38 f5 5a c4 37 b4 e5 2b 39
       0.0001473694 6.678308e-05 2.3407376e-05 0.00016393402
000040 74 62 95 3b c7 7e 58 3b 30 74 1d 39 f2 36 c8 38
       0.0045588557 0.003303455 0.0001501597 9.5469775e-05
000050 4c 9e 06 ba b7 bd 03 ba 7a 2f 36 b8 90 f2 55 38
       -0.00051352824 -0.0005025523 -4.3436397e-05 5.100906e-05
000060 d5 16 9e 39 c9 25 aa 39 41 ce 22 38 a8 87 c4 37
       0.0003015312 0.0003245308 3.88159e-05 2.342819e-05
000070 40 7c 3c 3a 4a cf 34 3a ad 7f 6f 38 4a 00 82 b8
       0.00071901456 0.00068973436 5.7100948e-05 -6.198937e-05
000080 fb 1c da b7 35 89 fa 37 b8 a0 a7 36 e6 f6 7f b8
       -2.600112e-05 2.9866214e-05 4.995698e-06 -6.102668e-05
000090 1e 6d 43 33 ff a4 ef b3 56 4c 97 32 ef 79 83 34
       4.5501217e-08 -1.11593174e-07 1.7613427e-08 2.448937e-07
0000a0 da 10 8d b7 09 cd b9 b8 29 e2 62 37 d9 64 a6 38
       -1.6816357e-05 -8.859678e-05 1.3523307e-05 7.934281e-05
0000b0 83 c2 18 b5 83 7c 41 b8 40 ef 9d b3 97 7e 6a 38
       -5.6907464e-07 -4.6130746e-05 -7.3544015e-08 5.5907843e-05
0000c0 ea 71 9e 39 81 2b 9d 39 bd 64 20 38 22 c9 fc 37
       0.0003022098 0.00029977786 3.8240792e-05 3.01344e-05
0000d0 44 4d 19 3a 2d 21 15 3a f0 35 77 38 0e 48 51 b3
       0.00058480003 0.00056888425 5.8939622e-05 -4.8727138e-08
0000e0 fc 23 37 3a e2 4f 31 3a ab ea 8d 38 1d 12 1c b7
       0.0006986258 0.00067639176 6.767114e-05 -9.302542e-06
0000f0 64 e9 5b 3a 7c 34 0a 3a 73 2b f8 37 17 d1 08 39
       0.0008388965 0.0005272103 2.9584136e-05 0.00013047863
000100 1e 86 f6 b7 67 20 65 b8 42 f0 0d b7 32 f2 94 37
       -2.9387938e-05 -5.462803e-05 -8.460194e-06 1.7755756e-05
000110 ed f5 08 3a 01 ae f4 39 ee 1d 21 38 5a 61 06 b8
       0.0005224634 0.0004666895 3.8413265e-05 -3.2038755e-05
000120 b2 5c 06 38 6b 33 b1 37 cc 49 82 35 56 2e 9e 36
       3.203442e-05 2.1123988e-05 9.707232e-07 4.714161e-06
000130 77 cb 16 39 01 40 1d 39 d6 54 c0 37 9b 9b ea 37
       0.00014380911 0.0001499653 2.2927688e-05 2.7967433e-05
000140 66 61 c9 ba af b7 c8 ba fa 57 ec b8 2e 25 4c 38
       -0.001536411 -0.0015313531 -0.00011269744 4.8672016e-05
000150 ba 94 35 39 ce ee 3e 39 8c 23 13 37 5e 20 89 b8
       0.0001731691 0.00018208774 8.770159e-06 -6.538698e-05
000160 ad 41 1b b8 6b d3 00 b8 3f 29 ee b5 30 6b 2b b7
       -3.7016045e-05 -3.0714476e-05 -1.7744386e-06 -1.0217351e-05
000170 8c d8 56 38 1b ff 50 38 42 3b 01 b4 6c 0d f9 b7
       5.122325e-05 4.982865e-05 -1.2035619e-07 -2.9689363e-05
000180 e1 9d 30 39 cc 28 55 39 dc 30 d9 37 23 7e 50 b6
       0.00016843482 0.00020328461 2.5891168e-05 -3.1067837e-06
000190 34 d8 f3 b7 2d bc 50 b7 7d f7 a4 37 1e 94 f8 37
       -2.9068535e-05 -1.2441579e-05 1.966557e-05 2.9632876e-05
0001a0 00 00 00 00 00 00 00 00 00 00 00 00 00 00 00 00
       0.0 0.0 0.0 0.0
0001b0 ea f9 9f 39 7c f9 99 39 22 a7 db 37 56 0b 9b b7
       0.00030513044 0.00029368314 2.6184662e-05 -1.8482719e-05
0001c0 7d 5c 7e 36 8f 1f 4e 38 53 c2 76 35 50 98 5f b8
       3.7902785e-06 4.914362e-05 9.192492e-07 -5.3309195e-05
0001d0 ed 51 e8 37 98 4d 33 39 37 bf cb 36 a4 ae 33 b9
       2.7694705e-05 0.00017099676 6.072132e-06 -0.00017135829
0001e0 76 4b 59 38 e9 cf d0 38 51 4b 47 b7 bf 4a b3 b8
       5.180711e-05 9.956939e-05 -1.187886e-05 -8.549308e-05
0001f0 61 9a 96 3b 6f eb 45 3b 69 a4 2a 39 a1 20 05 3a
       0.00459604 0.0030200144 0.00016273711 0.00050784094
000200 34 6d c3 39 d2 51 c3 39 b1 37 46 38 ab 9a 0f 38
       0.0003727466 0.0003725426 4.7258745e-05 3.4237903e-05
000210 d8 ca 1e 3a 7e 54 1b 3a 78 c1 83 38 3a 84 92 36
       0.0006057448 0.0005925371 6.282603e-05 4.3665323e-06
000220 f1 29 05 b6 e5 34 6b b8 23 ad 0a b7 20 83 8a 38
       -1.9842957e-06 -5.6077628e-05 -8.2657525e-06 6.604777e-05
000230 7a bc 2b 36 ec b4 46 b8 7b 5e bf b6 8a f8 a9 38
       2.5590693e-06 -4.7375375e-05 -5.7032426e-06 8.104842e-05
000240 38 8f 40 b7 eb ec a7 37 c6 f8 37 36 6f 4f 35 b8
       -1.14774375e-05 2.0018275e-05 2.741393e-06 -4.322774e-05
000250 4d 0e e0 37 39 71 4a b8 0e 5b 96 37 8b 54 92 38
       2.670954e-05 -4.8266e-05 1.7923794e-05 6.97757e-05
000260 fc 7f 75 39 5f f8 75 39 a7 f8 e7 37 93 6b 33 37
       0.00023412699 0.00023457546 2.7653134e-05 1.0694278e-05
000270 9a a8 6f b6 b3 b6 d4 37 da b1 24 36 8f 7a 12 b8
       -3.5711914e-06 2.5357445e-05 2.4541428e-06 -3.4923254e-05
000280 90 02 3e 3a 6c a8 37 3a c2 ec 84 38 97 88 2b b8
       0.00072483066 0.0007005993 6.33835e-05 -4.0896786e-05
000290 df 3c 03 3a 46 f6 fd 39 20 7e 36 38 c1 9e fd b7
       0.0005006324 0.00048439408 4.3509644e-05 -3.0233876e-05
0002a0 9d fc 22 39 82 64 22 39 ca 49 b0 37 38 f6 af 37
       0.0001554363 0.00015486966 2.1015196e-05 2.097628e-05
0002b0 53 0d 69 3a ff 5a 64 3a ef b8 a5 38 5a 99 25 b8
       0.000889023 0.0008711069 7.90226e-05 -3.9481885e-05
0002c0 14 ef 77 b6 e2 e3 b9 b8 04 75 20 b5 b3 7e c2 38
       -3.694503e-06 -8.863934e-05 -5.9774925e-07 9.2742404e-05
0002d0 ec d4 d1 39 0d 1c b3 39 91 6c 15 38 95 8d 5a 38
       0.00040022226 0.0003416244 3.562548e-05 5.210711e-05
0002e0 d8 57 1d 37 d5 14 ba 38 0c c1 4d 36 0e 3e c5 b8
       9.378382e-06 8.8730514e-05 3.0659749e-06 -9.4052506e-05
0002f0 82 6d aa 36 1f 3b ac b5 48 89 e0 b5 4e 72 4e 36
       5.079143e-06 -1.2832205e-06 -1.6729255e-06 3.0762926e-06
000300 29 02 1a 3a 33 9c 19 3a 9b 7c 2d 38 91 4a 8d b8
       0.00058749557 0.00058597623 4.1362462e-05 -6.737293e-05
000310 c7 a9 4c 39 b2 62 5d 39 d4 e7 9a 37 27 14 2a b8
       0.00019518203 0.00021112969 1.8466184e-05 -4.0549927e-05
000320 26 0c 1f 3a 9b 3b 22 3a ef 04 75 38 b3 48 1b b8
       0.0006067179 0.00061886915 5.8417147e-05 -3.7022586e-05
000330 1e f6 00 3c 5a 61 b4 3b b3 c8 9d 39 00 47 37 3a
       0.007871179 0.0055047693 0.00030094906 0.0006991476
000340 db 9c 3d 3a 32 5b 52 3a fd 4a 90 38 55 29 0e b9
       0.0007233151 0.00080244534 6.880423e-05 -0.00013557573
000350 56 6c 97 39 6f c0 8a 39 c1 4b f8 37 69 17 25 38
       0.0002888168 0.00026464785 2.959918e-05 3.9360868e-05
000360 b2 55 e2 37 0f 5d 82 b8 32 cd b2 37 14 8b 95 38
       2.6981204e-05 -6.2162166e-05 2.1314805e-05 7.130779e-05
000370 6e e3 4a 38 b9 c7 80 38 b2 07 6e b7 4c 7f 57 b8
       4.8372363e-05 6.140717e-05 -1.4187697e-05 -5.137855e-05
000380 e1 ef e1 39 15 ec de 39 c3 52 5b 38 0e e3 12 38
       0.00043094068 0.00042519034 5.2290747e-05 3.5020574e-05
000390 b6 62 10 38 b0 7c 92 38 65 c6 1c 37 df 17 7b b8
       3.4424207e-05 6.9850474e-05 9.344517e-06 -5.9865295e-05
0003a0 ff 7a 51 3a 9d 09 4a 3a 35 e2 9a 38 a6 fa c9 b7
       0.0007991045 0.0007707121 7.3854266e-05 -2.4077784e-05
0003b0 2d 4f 05 3a 41 d1 fe 39 9b c5 33 38 91 54 fb b7
       0.00050853455 0.00048602562 4.286096e-05 -2.9960911e-05
0003c0 01 23 eb 38 39 d4 04 39 52 21 6a 37 82 83 ba b6
       0.00011212193 0.0001266756 1.3955245e-05 -5.5585415e-06
0003d0 55 a1 17 3a 5c 2c 27 3a ff ea 5c 38 50 f4 ec b8
       0.0005784233 0.00063771545 5.2670945e-05 -0.00011298864
0003e0 4a 17 f2 39 a6 bb e9 39 d9 ab 23 38 52 a1 06 b8
       0.0004617519 0.00044581032 3.9022274e-05 -3.209833e-05
0003f0 00 00 00 00 00 00 00 00 00 00 00 00 00 00 00 00
       0.0 0.0 0.0 0.0

exp_avg_sq f4 [256, 4]
000000 31 47 62 25 e0 56 23 29 2d ae 1d 26 95 e0 d2 29
       1.9626496e-16 3.6268623e-14 5.470637e-16 9.364832e-14
000010 31 23 54 37 94 82 0b 37 10 c1 30 33 79 6b 24 35
       1.2644378e-05 8.315448e-06 4.1153783e-08 6.1251154e-07
000020 59 46 92 35 ea 1c 07 36 77 85 1a 33 0b b5 ff 35
       1.0898322e-06 2.0133398e-06 3.5977305e-08 1.9051671e-06
000030 60 5d dc 37 c6 bd 88 37 e5 e8 e4 33 80 b3 8a 35
       2.6269525e-05 1.6300834e-05 1.06594406e-07 1.0334043e-06
000040 8d 89 92 3a fd 3d 27 3a dd 50 33 36 20 b3 09 37
       0.0011179909 0.00063797814 2.6720147e-06 8.207542e-06
000050 f8 34 c9 37 99 56 86 37 25 d0 a6 33 92 e5 8a 35
       2.3985733e-05 1.601437e-05 7.7678386e-08 1.0348615e-06
000060 0d e4 98 38 ce c3 2b 38 99 f5 76 34 aa 03 1f 36
       7.2904026e-05 4.0951934e-05 2.2999883e-07 2.369498e-06
000070 28 a3 1c 38 b4 0e dd 37 3a 6f 01 34 d7 f9 08 36
       3.734525e-05 2.63521e-05 1.2054525e-07 2.0411005e-06
000080 db 17 b2 33 1b ba 11 34 ae 53 c2 31 98 3b 40 34
       8.29311e-08 1.3571882e-07 5.6556564e-09 1.7903074e-07
000090 db 0c ac 32 9b 9f a7 35 69 70 06 33 f3 82 52 36
       2.0029281e-08 1.2488921e-06 3.1301543e-08 3.136866e-06
0000a0 a5 ff b0 35 e4 3a d0 35 9d 94 46 33 d4 d1 c1 35
       1.3187424e-06 1.5514347e-06 4.623563e-08 1.4440689e-06
0000b0 d3 ea 1c 33 f7 9c c6 35 db bd af 32 eb 25 4f 36
       3.6535152e-08 1.4797832e-06 2.0459018e-08 3.0867475e-06
0000c0 3f 49 2b 38 05 00 c4 37 aa e3 12 34 59 e4 ca 35
       4.0837793e-05 2.336503e-05 1.3680133e-07 1.5116631e-06
0000d0 78 9e 7f 38 c7 db 1a 38 a6 98 58 34 73 9a 2b 36
       6.0944323e-05 3.6921145e-05 2.0172101e-07 2.5570887e-06
0000e0 41 de 92 38 30 3c 35 38 41 5b 77 34 f4 1e 4a 36
       7.0032205e-05 4.3209817e-05 2.3036866e-07 3.0118363e-06
0000f0 d0 18 a4 38 11 4e 35 38 9f 43 50 34 ad 1a 82 35
       7.824751e-05 4.3226468e-05 1.939611e-07 9.693518e-07
000100 19 d5 5a 34 f6 64 83 34 d2 53 fb 31 08 31 e6 34
       2.0380357e-07 2.447411e-07 7.3145907e-09 4.2876513e-07
000110 24 13 c4 37 6d 21 74 37 09 a1 86 33 1e 97 34 35
       2.3373934e-05 1.4551316e-05 6.2691534e-08 6.727513e-07
000120 88 ce fd 33 21 4b 91 33 16 2f e2 2f 05 a8 c1 31
       1.18187984e-07 6.7657545e-08 4.1142617e-10 5.636141e-09
000130 29 d0 b1 37 b5 98 49 37 d7 05 96 33 cc cd 4c 35
       2.1196976e-05 1.20160885e-05 6.9859816e-08 7.6295396e-07
000140 ea ae aa 39 2e 41 50 39 08 93 82 35 6a 27 14 37
       0.00032555248 0.00019860707 9.728547e-07 8.830664e-06
000150 7c 15 87 35 62 14 d0 35 ab 72 0d 32 50 80 f4 34
       1.0064537e-06 1.550314e-06 8.233353e-09 4.55419e-07
000160 dd fb 16 36 88 39 b3 35 01 1e e8 31 d0 2b 98 33
       2.2498346e-06 1.3353283e-06 6.7554997e-09 7.086021e-08
000170 6f 70 92 34 32 ab 87 35 55 86 04 32 d2 cf 45 35
       2.7276425e-07 1.0108108e-06 7.713955e-09 7.369064e-07
000180 ef 42 a2 37 68 59 38 37 72 d5 87 33 e5 83 2a 35
       1.9343073e-05 1.0988071e-05 6.325253e-08 6.3521867e-07
000190 c5 9f bb 38 d2 4a 3f 38 82 26 9a 34 0f 74 8f 37
       8.946614e-05 4.560763e-05 2.8712753e-07 1.7100972e-05
0001a0 00 00 00 00 00 00 00 00 00 00 00 00 00 00 00 00
       0.0 0.0 0.0 0.0
0001b0 7c 29 14 37 7f dc c6 36 04 fe f7 32 bf 53 f3 34
       8.831146e-06 5.926529e-06 2.8870097e-08 4.532321e-07
0001c0 a7 47 d8 30 76 c0 f0 31 03 3f 8d 2e bc 38 85 31
       1.5736433e-09 7.0067996e-09 6.423131e-11 3.8772594e-09
0001d0 33 6b 12 34 c1 06 75 34 5a 51 d1 31 5d b2 d3 34
       1.3636308e-07 2.281986e-07 6.091949e-09 3.943159e-07
0001e0 9d 8e 5b 35 b9 43 43 36 9b 5b cb 33 41 86 4e 36
       8.179139e-07 2.9096684e-06 9.469587e-08 3.0774538e-06
0001f0 68 5f d0 3a c6 93 67 3a 41 93 7c 36 6e b7 8f 37
       0.0015897574 0.00088339706 3.763664e-06 1.7132345e-05
000200 f8 b1 85 38 d9 5e 19 38 31 29 65 34 41 23 20 36
       6.3750835e-05 3.6566376e-05 2.1342272e-07 2.3862378e-06
000210 ac 9b 99 38 59 3c 38 38 c4 0e 82 34 2b 8f 48 36
       7.324605e-05 4.392522e-05 2.422513e-07 2.9885657e-06
000220 d9 b7 4f 34 4a c1 64 34 ba 2c fc 31 6d 65 b0 34
       1.934526e-07 2.1304473e-07 7.33925e-09 3.2856352e-07
000230 3c 4f 1d 34 9b 21 2f 34 64 7a 21 31 0d 15 d0 34
       1.465059e-07 1.631037e-07 2.3498155e-09 3.8758336e-07
000240 dc 37 a2 33 11 83 9b 34 a6 71 58 31 09 be 2b 35
       7.5538736e-08 2.8966363e-07 3.1496739e-09 6.3979e-07
000250 2e 43 fe 35 ff f2 37 36 11 fe 4c 33 bd 87 d8 35
       1.8944027e-06 2.7410567e-06 4.7728523e-08 1.6132759e-06
000260 d5 72 9f 37 75 f1 39 37 2a 09 86 33 fe 56 45 35
       1.900775e-05 1.1083078e-05 6.241528e-08 7.351481e-07
000270 cd 0f 8c 31 50 ca 15 33 a4 32 73 30 44 c8 85 33
       4.0763326e-09 3.4875768e-08 8.847485e-10 6.229723e-08
000280 f7 a4 57 38 b7 29 0e 38 f4 41 33 34 9a 57 27 36
       5.141363e-05 3.389429e-05 1.6694668e-07 2.493593e-06
000290 cd da cb 37 19 28 87 37 09 79 a9 33 47 4c a0 35
       2.4301373e-05 1.6111926e-05 7.891692e-08 1.1943129e-06
0002a0 9b 90 7e 37 90 aa 10 37 92 10 5c 33 68 86 18 35
       1.5173248e-05 8.622781e-06 5.1237812e-08 5.682e-07
0002b0 07 ff c8 38 be e9 7d 38 bc d5 9e 34 9e af 6e 36
       9.584246e-05 6.053759e-05 2.9585306e-07 3.5566986e-06
0002c0 cf 55 fd 32 3e ff 1d 35 28 5a 40 32 df 05 a8 35
       2.9492098e-08 5.8858484e-07 1.119637e-08 1.2518684e-06
0002d0 3a 67 bb 37 5c 96 66 37 51 36 9d 33 d0 5b 61 35
       2.2340206e-05 1.3744077e-05 7.320762e-08 8.3952636e-07
0002e0 b8 68 bb 33 b2 df e5 33 6d 25 81 31 b6 31 5b 34
       8.726914e-08 1.07043334e-07 3.758649e-09 2.0414049e-07
0002f0 3e b5 53 31 94 7c 94 32 c6 d9 fd 2f 64 04 1f 33
       3.0807565e-09 1.728612e-08 4.617517e-10 3.7024066e-08
000300 d4 0a cb 37 78 fd 8f 37 46 40 9f 33 5b 31 56 35
       2.4204528e-05 1.7164959e-05 7.415706e-08 7.9793034e-07
000310 8b 21 a7 36 6e 4f 2e 36 be 4f 8b 32 6f 9a 30 34
       4.9808928e-06 2.5974255e-06 1.6217992e-08 1.644746e-07
000320 7b 27 43 38 a1 14 f6 37 1f 3b 24 34 b9 a4 0d 36
       4.6528392e-05 2.9335091e-05 1.5295198e-07 2.1106518e-06
000330 72 c7 e7 3a 50 9d 80 3a 38 d8 9c 36 52 1d b7 37
       0.0017683341 0.0009812508 4.6743335e-06 2.1828953e-05
000340 04 65 5b 38 b2 c7 0e 38 39 ca 33 34 2c 57 1d 36
       5.2307747e-05 3.404142e-05 1.6744242e-07 2.3445564e-06
000350 f9 63 ef 37 45 ae 8a 37 3a c9 c3 33 e2 c5 84 35
       2.8537574e-05 1.6532033e-05 9.116998e-08 9.892358e-07
000360 4c b2 eb 35 dc d7 37 36 34 4d 84 33 ef 15 30 36
       1.7560756e-06 2.7394772e-06 6.160772e-08 2.623881e-06
000370 6e 2e 44 35 47 ef b8 35 30 a7 59 33 2c fb f6 35
       7.3083254e-07 1.3778707e-06 5.0676306e-08 1.8401529e-06
000380 9d f4 92 38 e1 28 29 38 24 b1 7b 34 db a6 30 36
       7.007385e-05 4.033081e-05 2.344064e-07 2.6323166e-06
000390 7a e2 ad 33 36 15 a7 33 42 66 ef 30 42 9d 12 34
       8.097136e-08 7.780402e-08 1.7418602e-09 1.365452e-07
0003a0 f8 e5 9d 38 63 c2 47 38 5c 70 84 34 02 13 64 36
       7.5291784e-05 4.7626334e-05 2.4668668e-07 3.3985712e-06
0003b0 ff 25 b5 37 02 03 74 37 14 15 97 33 cd b0 93 35
       2.1594575e-05 1.4544234e-05 7.0353195e-08 1.1003809e-06
0003c0 99 8e be 36 d0 b0 5e 36 24 01 a2 32 12 b4 78 34
       5.679042e-06 3.3183496e-06 1.88598e-08 2.3162309e-07
0003d0 9d bb 03 38 bc 5f ad 37 7f 95 d9 33 a9 e6 c1 35
       3.1407562e-05 2.0667787e-05 1.0132043e-07 1.4446751e-06
0003e0 86 d3 9d 37 16 79 55 37 81 e3 82 33 05 89 80 35
       1.8814357e-05 1.2723982e-05 6.0949795e-08 9.576621e-07
0003f0 00 00 00 00 00 00 00 00 00 00 00 00 00 00 00 00
       0.0 0.0 0.0 0.0

exp_avg f4 [256]
000000 04 00 00 00 01 1c 73 b9 32 8c e4 39 e5 23 4f b9
       6e-45 -0.00023184718 0.00043592002 -0.0001975443
000010 b7 72 e5 ba d7 3c be 39 f6 ed 43 b9 19 17 f3 b9
       -0.0017505501 0.00036284953 -0.00018685297 -0.0004636578
000020 4e 98 34 38 37 ee 52 34 ca b5 c1 39 5a 58 24 38
       4.305719e-05 1.9644436e-07 0.00036947272 3.918293e-05
000030 dc 8e 5d b9 aa db cc b9 b9 c2 f1 b9 47 55 a8 b9
       -0.00021129422 -0.00039073575 -0.00046112182 -0.00032106994
000040 a3 83 65 38 20 cd a4 b9 05 8b 86 b7 c0 2c ef b8
       5.472045e-05 -0.00031433348 -1.603878e-05 -0.000114047434
000050 fa 6c e3 3a ae 85 a4 b8 9c e1 7a 37 d8 e2 3a b7
       0.0017351203 -7.845029e-05 1.495369e-05 -1.113928e-05
000060 96 43 1d b9 e1 18 ff 38 00 00 00 00 e3 66 4d b9
       -0.00014997864 0.000121639816 0.0 -0.00019588652
000070 d7 2e c8 b7 e2 1f 4b b9 23 5c b5 38 59 99 e6 ba
       -2.386367e-05 -0.00019371466 8.6479144e-05 -0.0017593309
000080 13 63 8c b9 68 ec d7 b9 c7 04 72 b8 0c 4b fd b8
       -0.00026776697 -0.00041184132 -5.7701745e-05 -0.00012077959
000090 69 21 49 38 32 83 98 39 bb ea 30 b9 eb 3f 1a 38
       4.795325e-05 0.00029089447 -0.00016872112 3.677599e-05
0000a0 5b cd fa b9 6b 2c ad b9 1b fd e1 b8 ec c1 12 ba
       -0.00047836718 -0.00033030225 -0.000107759806 -0.00055983546
0000b0 29 46 70 38 d5 27 9f b9 eb 3d e7 b8 6e 57 cb b6
       5.72858e-05 -0.0003035652 -0.000110264715 -6.0600496e-06
0000c0 36 f0 1e ba 08 55 2d b9 0e c6 db b9 8c 78 54 bb
       -0.0006063016 -0.00016530242 -0.00041918497 -0.0032420484
0000d0 e9 89 11 ba 6b c8 5f b9 f5 67 e3 39 78 0f d7 38
       -0.0005551861 -0.00021341599 0.00043374268 0.0001025488
0000e0 04 5b 9c b9 aa 74 cf 37 1d d1 08 ba 12 b0 a8 b9
       -0.0002982245 2.4730649e-05 -0.00052191486 -0.0003217464
0000f0 c3 af b7 b8 06 ca e6 b9 02 8f 9e b9 00 00 00 00
       -8.758858e-05 -0.00044019538 -0.00030242658 0.0
000100 03 13 83 b9 68 10 d9 b8 ce 56 ef 37 49 ba af b9
       -0.00025000432 -0.00010350422 2.8531442e-05 -0.00033517394
000110 69 68 da b9 91 7d 45 36 ee 74 02 b8 69 3c 00 ba
       -0.00041657992 2.9428377e-06 -3.1103315e-05 -0.00048918143
000120 4d 25 ae b8 ff 55 e0 b9 e8 be 45 37 4c 3d 0f ba
       -8.3039144e-05 -0.00042788681 1.1786564e-05 -0.0005464151
000130 44 ea c5 b9 37 7c bd 3a 30 43 2f b8 fa 77 dc b9
       -0.0003774931 0.0014456575 -4.1785825e-05 -0.0004205106
000140 9c cc 14 3a 38 cb 08 ba 89 a5 8a 39 6b 7c 3c b9
       0.0005676241 -0.000521827 0.00026444744 -0.00017975426
000150 4c b7 e5 b9 3c 31 08 ba 00 57 ae b9 da 55 0b ba
       -0.0004381485 -0.0005195325 -0.00033252686 -0.0005315222
000160 02 e1 6e b9 7a aa 64 ba 5f 57 2a 38 8a 43 01 39
       -0.0002278127 -0.0008722913 4.061253e-05 0.00012327559
000170 51 39 cd b9 4a 21 ee 37 72 2a 53 b8 72 5f c9 b9
       -0.0003914335 2.8387312e-05 -5.034585e-05 -0.0003840882
000180 c1 f0 0f ba b8 b0 19 ba 90 1e 93 b9 95 7f c4 b8
       -0.0005490892 -0.000586282 -0.00028060796 -9.369772e-05
000190 e8 45 a6 ba 04 00 00 00 84 f9 06 ba 2b ac b2 b9
       -0.0012685629 6e-45 -0.0005148875 -0.0003407908
0001a0 bb 7f a8 b8 ff af a3 b9 6c 13 c3 b9 01 36 fe b9
       -8.034656e-05 -0.0003122091 -0.0003720777 -0.0004848689
0001b0 53 e7 dd b9 00 4e f9 31 c8 f4 9d 39 f4 65 99 39
       -0.00042324755 7.2557214e-09 0.0003012775 0.00029258395
0001c0 46 1c 0b b8 42 05 67 b9 d1 c7 65 b9 98 59 60 b9
       -3.3166514e-05 -0.00022031835 -0.00021913579 -0.00021395681
0001d0 d3 b4 f8 b9 c8 7a e9 b9 00 00 00 00 41 e7 16 b9
       -0.0004743697 -0.00044532702 0.0 -0.00014391264
0001e0 18 14 bb b9 0f 9d b6 b9 c2 ce e6 ba 6b df 73 b9
       -0.0003568239 -0.00034830763 -0.0017609226 -0.00023257516
0001f0 6e cc 4d ba fd 80 09 b7 70 af ca b9 04 00 00 00
       -0.0007850592 -8.195869e-06 -0.00038659154 6e-45
000200 35 03 81 b9 64 76 95 b9 57 f3 c4 ba bb 1d 9b b9
       -0.00024607187 -0.00028507703 -0.0015026134 -0.00029586055
000210 67 56 1e b8 9d 51 11 38 b8 89 b4 b9 2d e8 e8 b8
       -3.7750604e-05 3.4646702e-05 -0.00034434884 -0.00011105868
000220 5e 6c 32 b9 da 59 83 b8 37 f5 0e bb 01 e6 0e b8
       -0.00017015773 -6.263303e-05 -0.002181364 -3.4069646e-05
000230 af 26 b6 b9 00 00 00 00 c0 b6 ab b9 fd cf 4c b8
       -0.00034742567 0.0 -0.0003275182 -4.8831094e-05
000240 c6 1b bb b9 e3 c5 c8 38 4c df 86 b8 6a 68 be b5
       -0.00035688112 9.5736024e-05 -6.43121e-05 -1.4186492e-06
000250 71 85 f3 b6 8c 5c b1 b9 06 d0 16 3b 2e d0 c8 b9
       -7.257499e-06 -0.00033829024 0.0023012175 -0.0003830208
000260 e1 83 5a 38 6d a4 9f ba de 63 f4 b9 1a 88 61 ba
       5.2098072e-05 -0.001217974 -0.00046613713 -0.00086033496
000270 38 27 a3 b9 c1 ad 83 ba 7f 51 de 37 92 41 cc 39
       -0.00031119003 -0.001004629 2.6502412e-05 0.00038958766
000280 50 e5 ca b9 e4 2b 68 b8 80 06 3c b8 e0 32 5b 35
       -0.00038699294 -5.5353987e-05 -4.4828746e-05 8.165789e-07
000290 7c 0c 89 b8 f2 d9 48 b9 6b ea 24 3b 57 af e6 31
       -6.5349945e-05 -0.00019154677 0.0025164138 6.713815e-09
0002a0 e2 1f 94 b9 23 88 89 38 ef fd a6 b8 6a f9 ac b6
       -0.00028252514 6.5580265e-05 -7.962796e-05 -5.155035e-06
0002b0 19 ec 01 bb 59 ff 16 b9 59 a3 54 39 ad dc 19 bb
       -0.0019824563 -0.00014400239 0.00020278747 -0.002347748
0002c0 c5 f1 50 b9 2d c5 d2 b9 dd 90 02 ba e0 75 93 b8
       -0.00019926492 -0.0004020123 -0.0004980693 -7.031462e-05
0002d0 69 cf 04 b9 6d 9d f7 b9 2c a8 04 ba 89 8e 28 b9
       -0.00012665767 -0.00047228803 -0.000506046 -0.00016074827
0002e0 9d 03 20 b9 7e 82 ff 38 e3 98 87 b9 81 ae 50 38
       -0.00015260135 0.000121836536 -0.00025863116 4.9753584e-05
0002f0 9e 12 01 39 4a 36 f5 b9 07 c9 a6 b8 49 34 f2 b9
       0.00012309334 -0.0004677049 -7.952941e-05 -0.00046196792
000300 5c d1 7b 37 3f 01 b3 38 84 96 13 b9 e6 46 70 37
       1.5009511e-05 8.535617e-05 -0.00014075084 1.4321622e-05
000310 3a 8f 0f 38 b7 25 d4 39 e8 a1 10 ba e3 11 1a ba
       3.4227247e-05 0.0004046389 -0.000551729 -0.0005877299
000320 9e e2 09 ba 79 39 97 38 03 89 f9 39 ff 41 cb b9
       -0.0005259904 7.210946e-05 0.00047595063 -0.00038768348
000330 f2 43 ec 38 01 53 cf b9 0f 76 da b9 7f 92 9f 37
       0.00011266013 -0.0003954396 -0.0004166816 1.9022495e-05
000340 cf cc 53 36 98 58 b6 b8 25 82 35 39 1e ef 83 38
       3.1560664e-06 -8.694938e-05 0.00017309988 6.291106e-05
000350 c0 d1 9c b9 ff 69 f1 38 31 84 04 ba 22 14 95 39
       -0.00029910915 0.00011511519 -0.00050550984 0.00028434495
000360 72 b5 c9 b7 a5 89 59 b9 dc 8a bc b9 8f a6 e8 b7
       -2.404556e-05 -0.00020746009 -0.00035961613 -2.7734115e-05
000370 cd e9 64 b9 d1 cd 0c bb 59 a8 78 b8 d1 10 e3 b7
       -0.00021830872 -0.002148498 -5.9284594e-05 -2.706834e-05
000380 23 f8 95 b9 77 cd b9 b9 32 bd cd b5 97 a1 09 ba
       -0.0002860437 -0.00035439033 -1.5328753e-06 -0.0005250214
000390 02 67 35 b9 63 23 3d b9 cd 0b cd 38 90 b0 cd 39
       -0.00017299879 -0.00018037627 9.77736e-05 0.00039232196
0003a0 d8 72 09 3b bc 83 2b b9 55 cd 55 b7 2e cf 9f b9
       0.0020972993 -0.00016356906 -1.2743597e-05 -0.00030481204
0003b0 65 12 0b 34 71 03 2a b9 f9 44 d8 ba 76 11 8b 39
       1.2952076e-07 -0.00016213745 -0.0016500048 0.00026525155
0003c0 23 65 13 ba b1 3e d8 38 af 51 ec b7 74 21 e3 38
       -0.00056226755 0.0001031136 -2.817143e-05 0.000108304346
0003d0 1e 9d b0 b8 07 1c d0 b9 d5 b1 0c 39 8d e3 b3 ba
       -8.421599e-05 -0.00039693734 0.00013417688 -0.0013724432
0003e0 ff 4f b8 b9 48 fb ee b9 22 83 ad b9 19 4d 98 b9
       -0.00035154817 -0.00045582117 -0.00033094833 -0.0002904914
0003f0 7d 34 84 b9 10 66 9f b8 ba 4a 5a b9 ed 8d 49 ba
       -0.0002521611 -7.6007214e-05 -0.00020817938 -0.000768869
